1. ConV Model Summary:

Model: "model_14"
_________________________________________________________________
Layer (type)                 Output Shape              Param #   
=================================================================
input_16 (InputLayer)        (None, 28, 28, 1)         0         
_________________________________________________________________
conv2d_50 (Conv2D)           (None, 28, 28, 10)        100       
_________________________________________________________________
max_pooling2d_19 (MaxPooling (None, 14, 14, 10)        0         
_________________________________________________________________
conv2d_51 (Conv2D)           (None, 14, 14, 6)         966       
_________________________________________________________________
max_pooling2d_20 (MaxPooling (None, 4, 4, 6)           0         
_________________________________________________________________
conv2d_52 (Conv2D)           (None, 4, 4, 6)           582       
_________________________________________________________________
up_sampling2d_16 (UpSampling (None, 16, 16, 6)         0         
_________________________________________________________________
conv2d_53 (Conv2D)           (None, 14, 14, 10)        550       
_________________________________________________________________
up_sampling2d_17 (UpSampling (None, 28, 28, 10)        0         
_________________________________________________________________
conv2d_54 (Conv2D)           (None, 28, 28, 1)         91        
=================================================================
Total params: 2,289
Trainable params: 2,289
Non-trainable params: 0

2. Test Accuracy:

The test error of the "train" data is 0.030. And the test error of the "test" data is 0.0295.

3. Anomly Detection:

The anomaly dataset has 9,659 over 60,000 records as "anomalies", which is 16.09%. The train dataset has 0 over 60,000 records as anomalies, which is 0%..
